student/assignment 3/outputs/best_mlp.pt (torch, 444513 bytes, 6 tensors)

net.0.weight f4 [256, 300]
0	0x3d821071	0.06350792
1	0x3db266ff	0.08711051
2	0xbd482b23	-0.048869263
3	0xbdcfc7ef	-0.10145556
4	0xbb526417	-0.0032103115
5	0x3d8af595	0.06785122
6	0x3da40ce7	0.080102734
7	0x3d00d7c5	0.031455774
8	0xbc741520	-0.014897615
9	0x3ca924ad	0.020647371
10	0xbc5dc699	-0.013536119
11	0x3d2d3a34	0.042291835
12	0x3d6a9955	0.057275135
13	0x3c9ac398	0.018892094
14	0xbe3dccf5	-0.18535216
15	0x3cf060de	0.029343065
16	0xbcdcd265	-0.026955793
17	0x3ca78806	0.020450603
18	0xbc9e5a79	-0.01933025
19	0xbe27e374	-0.1639536
20	0xbcdf306f	-0.027244775
21	0xbd7d6cec	-0.061871454
22	0xbd5dabb0	-0.054118812
23	0xbbc80e3b	-0.006105212
24	0xbe0e3189	-0.13886084
25	0x3d60101a	0.054702856
26	0x3d02afff	0.031906124
27	0x3dce9e73	0.100888155
28	0xbc09b4d3	-0.008404928
29	0x3d7cf788	0.0617595
30	0x3d0d49e6	0.034494303
31	0xbd2322b3	-0.039828014
32	0x3c93dc91	0.01804951
33	0xbcdfd41c	-0.027322821
34	0x3b0dc74f	0.002163369
35	0x3d22dab7	0.039759364
36	0x3d80fa6f	0.062977664
37	0xbc8c8a48	-0.017155781
38	0x3d2c8583	0.042119514
39	0xba7a129c	-0.0009539516
40	0x3d208de5	0.03919782
41	0x3d0294ba	0.031880118
42	0xbc95518c	-0.018227361
43	0x3dd3aab4	0.103352934
44	0x3dcd004f	0.100098245
45	0x3d21069a	0.039312936
46	0x3de070bc	0.109590024
47	0xbd430311	-0.047610346
48	0xbd03badf	-0.032160636
49	0x39f30558	0.00046352553
50	0xbc402904	-0.011728529
51	0xbd7d6a82	-0.061869152
52	0x3d991041	0.07473803
53	0x3b312a62	0.0027033319
54	0x3c81cf24	0.015845843
55	0xbd5d2366	-0.053988837
56	0x3ca30bb3	0.01990304
57	0xbda9d4ea	-0.08292563
58	0xbc80e04e	-0.015731957
59	0x3cac6252	0.021042977
60	0xbe178ead	-0.1480052
61	0x3c8c4d4d	0.017126704
62	0xbc8dd3e8	-0.017312959
63	0x3c659764	0.014013145
64	0xbd10d110	-0.035355628
65	0xbd328e32	-0.04359264
66	0xbd7951fe	-0.06086921
67	0xbd2c6bb5	-0.042094905
68	0xbca50c22	-0.020147387
69	0x3d13d8ef	0.036095556
70	0xbd184ffe	-0.03718566
71	0x3dbc0f94	0.09182659
72	0x3c8d2fbd	0.017234677
73	0xbc672100	-0.014106989
74	0x3d8ad7bd	0.0677943
75	0x3cd92e4e	0.026511338
76	0x3e20e1b5	0.157111
77	0x3d85feb8	0.06542724
78	0x3dbc3f41	0.09191752
79	0xbdfa3291	-0.12216676
80	0xbd93d5d6	-0.0721852
81	0xbd0d09a3	-0.03443302
82	0xbd9fa794	-0.07795635
83	0xbb9c6678	-0.0047729574
84	0x3e053311	0.13007762
85	0x3db42feb	0.08798202
86	0x3e1832f1	0.14863183
87	0xbcf9243a	-0.030412782
88	0xbdcd9147	-0.10037475
89	0xbd328627	-0.04358497
90	0xbcd3ab96	-0.025838654
91	0xbd05af40	-0.032637835
92	0xbd8b7f10	-0.068113446
93	0x3c48cd55	0.012255986
94	0xbdd99268	-0.10623628
95	0xba593ef9	-0.0008287277
96	0xbe69580d	-0.22787495
97	0xbc568bf3	-0.01309489
98	0xbd7ca4c6	-0.061680578
99	0x3daa2a53	0.08308854
100	0x3d2e5716	0.04256352
101	0xbd866420	-0.06562066
102	0xbdb78571	-0.08960999
103	0x3c8b0644	0.016970761
104	0x3cb11414	0.02161602
105	0xbcabdfd0	-0.020980746
106	0x3c9f034a	0.019410748
107	0xbd58e3b2	-0.052951522
108	0x3e1fa91b	0.15591852
109	0xbb5c8b60	-0.003365241
110	0xbca2f141	-0.01989043
111	0xbcea0448	-0.028566495
112	0x3ce2378b	0.027614376
113	0x3de369e3	0.11104181
114	0xbd0b5322	-0.03401483
115	0xbd9b195c	-0.07573196
116	0x3b78b986	0.0037952377
117	0x3cc9b890	0.02462414
118	0xbda96574	-0.08271304
119	0xbd424a41	-0.047434095
120	0xbe0a9aff	-0.13535689
121	0xbd3a9245	-0.04554965
122	0x3d17a036	0.037018023
123	0xbc35b9e2	-0.011091681
124	0x3d89de83	0.06731894
125	0x3c35bd59	0.011092507
126	0xbd4aa06f	-0.049469408
127	0xbda3a4af	-0.07990395
128	0xbd9268b3	-0.07148876
129	0xbdbbfd73	-0.09179201
130	0x3daabefe	0.0833721
131	0x3dc2c543	0.09510281
132	0xbdedea01	-0.11616898
133	0x3d99ebd7	0.07515686
134	0xbd354ffb	-0.04426573
135	0xbd82f641	-0.063946255
136	0x3dc75611	0.09733213
137	0x3b327135	0.0027228121
138	0x3d8e92b6	0.06961577
139	0x3d9ee88e	0.077592
140	0x3d4fcec4	0.050734296
141	0xbe61939d	-0.22028966
142	0xbd4ff866	-0.050774
143	0xbe62b99a	-0.22141114
144	0x3c96133d	0.01831972
145	0xbddfd0ad	-0.109284736
146	0xbcb93ead	-0.022612894
147	0x3d88f644	0.066875964
148	0x3cacadc8	0.02107896
149	0x3bc0803f	0.005874663
150	0x3d8a0dc5	0.067409076
151	0xbb4002aa	-0.0029298463
152	0xbd888dea	-0.06667693
153	0x3cff1dbf	0.031142114
154	0x3cd9ac0b	0.026571294
155	0xbd8fe1d8	-0.07025498
156	0xbe1043df	-0.14088391
157	0x3bec8a8e	0.0072186654
158	0xbdbfe1ec	-0.09369263
159	0xbd974186	-0.073855445
160	0x3d1f8603	0.038946163
161	0x3d781d35	0.06057473
162	0x3d5a54f5	0.053303678
163	0xbdd0c654	-0.10194078
164	0xbc76c4de	-0.015061585
165	0xbd826f1b	-0.06368848
166	0xbd80b3df	-0.06284308
167	0x3e6d698a	0.23184791
168	0x3d661162	0.05616892
169	0x3cd43452	0.025903855
170	0xbd6a165f	-0.05715024
171	0xbd255c1e	-0.040371053
172	0x3df25623	0.118328355
173	0xbd5e94e4	-0.054341212
174	0x3d93113f	0.07181024
175	0x3d08fd14	0.03344448
176	0xbca07fae	-0.019592132
177	0xbde9741e	-0.11399101
178	0x3d0d9c88	0.034573108
179	0x3e113c7a	0.14183226
180	0xbdb628e7	-0.0889452
181	0x3ddc4926	0.107561395
182	0xbd8d65ff	-0.0690422
183	0xbd8d00ab	-0.06884893
184	0xbd802f0c	-0.062589735
185	0xbd8764e0	-0.06611037
186	0xbd7a9141	-0.06117368
187	0xbd6d2e87	-0.0579057
188	0xbc9390ab	-0.018013319
189	0x3c96b534	0.018396951
190	0xbe1e9f7a	-0.15490523
191	0xba5c5392	-0.0008404787
192	0xbd1522d8	-0.036410183
193	0xbce4c458	-0.027925655
194	0xbd4d368c	-0.050100848
195	0xbc1db10d	-0.009624732
196	0xbc0f6ec0	-0.008754432
197	0xbd1f475e	-0.03888642
198	0xbd77658a	-0.06039957
199	0xbca06998	-0.019581601
200	0x3c3b07b6	0.011415413
201	0xbdccd208	-0.10000998
202	0xbd0f502c	-0.034988567
203	0x3e7ccdff	0.24687956
204	0xbbe8189b	-0.0070830113
205	0x3e0e44d7	0.13893448
206	0xbd451df5	-0.048124272
207	0x3c8dd3bf	0.017312882
208	0x3d39092d	0.045174766
209	0x3d0dd329	0.034625206
210	0xbcb0f771	-0.021602364
211	0xbd2486a8	-0.04016748
212	0x3d6c85c0	0.05774474
213	0x3d8e1401	0.06937409
214	0x3d790e0c	0.06080441
215	0xbd7cdb65	-0.06173267
216	0x3e268c96	0.16264567
217	0xbcf5f21b	-0.030022671
218	0x3d11abfa	0.0355644
219	0xbd39c7f0	-0.04535669
220	0x3c71ace6	0.014750695
221	0xbcc263db	-0.023729255
222	0xbd3a6dd9	-0.045514915
223	0x3b4a1cbb	0.0030839879
224	0xbc9a3f57	-0.01882903
225	0xbe043b21	-0.12913181
226	0xbe5c9462	-0.21540979
227	0xbcd252dc	-0.025674276
228	0x3d6ba7d9	0.05753312
229	0xbd0c4fe5	-0.03425588
230	0x3dc623b3	0.09674778
231	0xbcade5c6	-0.021227729
232	0x3caec374	0.021333434
233	0xbe0eacfa	-0.13933173
234	0x3da5d85a	0.080979064
235	0xbe53ece5	-0.20695837
236	0x3c3d153a	0.011540705
237	0x3c961583	0.018320804
238	0x3e7f1a82	0.24912456
239	0x3d9bab09	0.07600982
240	0x3d44a1e0	0.04800594
241	0x3dc831bd	0.09775112
242	0x3bf62c5b	0.007512612
243	0x3daa081c	0.08302328
244	0xbbab3fd9	-0.005226117
245	0x3c9d1bd0	0.019178301
246	0x3cb2d3b0	0.021829456
247	0xbb086389	-0.002081128
248	0xbd38610a	-0.04501442
249	0xbcc5630c	-0.02409508
250	0xbd8c4779	-0.0684957
251	0xbd23f769	-0.04003087
252	0x3dc8ab8f	0.09798347
253	0x3d43d127	0.047806885
254	0xbdd88c72	-0.10573663
255	0x3ced31fe	0.028954502

net.0.bias f4 [256]
0	0x3ca28c3c	0.01984226
1	0x3d2c2e64	0.04203643
2	0x3c82f028	0.015983656
3	0x3d00de91	0.031462256
4	0xbd47d300	-0.04878521
5	0xbbb028d4	-0.005375961
6	0x3d65c318	0.05609426
7	0x3ca9f6d5	0.020747581
8	0xbd21ec21	-0.03953183
9	0xbd08b614	-0.03337677
10	0xbb812b84	-0.003941955
11	0xbd397c1e	-0.045284383
12	0xbd1d64dc	-0.038426265
13	0xbbcad337	-0.0061897296
14	0x3cf0c449	0.029390471
15	0x3cc9d793	0.024638927
16	0x3ce85636	0.028361421
17	0xbd65a956	-0.056069694
18	0xbc7ea4d4	-0.015542228
19	0xbd3d19d9	-0.04616723
20	0xbd469555	-0.048482258
21	0x3cf44826	0.02981956
22	0xbd089c06	-0.03335192
23	0x3d21ef2d	0.039534736
24	0xbd2f77c8	-0.04283884
25	0x3ca05ef9	0.019576536
26	0xbd058407	-0.032596614
27	0xbd605d27	-0.054776337
28	0x3c7070fa	0.014675373
29	0x3cddfcdc	0.027098112
30	0x3c75bec9	0.0149991
31	0x3c1835ad	0.009290141
32	0x39cd298f	0.0003913161
33	0x3d07202a	0.03298966
34	0xbd29df29	-0.041472588
35	0x3d59fef3	0.053221654
36	0x3d08788e	0.033318095
37	0x3c20ff98	0.009826563
38	0xbca5a452	-0.020219956
39	0x3cfcb567	0.030848218
40	0x3d2855e7	0.041097548
41	0x3d1962dc	0.037447795
42	0xbcc53fcf	-0.024078278
43	0x3caddbec	0.021223031
44	0xbcfc1a61	-0.030774297
45	0xbcb63b50	-0.02224508
46	0xbd06e84f	-0.03293639
47	0xbc26abd6	-0.010172805
48	0xbd313e80	-0.043272495
49	0xbccb33f1	-0.024805041
50	0x3d23755c	0.039906844
51	0x3c832838	0.016010389
52	0xbbfca696	-0.0077102883
53	0xbd1e735c	-0.038684234
54	0x3caed373	0.021341061
55	0xbd2e59e1	-0.042566184
56	0x3d008a7a	0.03138206
57	0x3d55a7ab	0.052161854
58	0x3c1e0763	0.009645316
59	0x3d19157a	0.037373997
60	0xbcd2efca	-0.025749106
61	0x3c9a75dc	0.018855028
62	0xbd49d9a3	-0.04927982
63	0x3a5fdcb9	0.0008539665
64	0x3d1f59d5	0.03890403
65	0x3d332092	0.043732233
66	0x3cc52278	0.024064288
67	0xbc15399d	-0.009107974
68	0xbd6f4f97	-0.058425512
69	0x3ce9e903	0.028553491
70	0xbd4941f0	-0.04913515
71	0x3ca8d88c	0.02061107
72	0x3d021e24	0.031767026
73	0x3c8936c0	0.01674974
74	0x3d273892	0.040825434
75	0x3c720793	0.014772314
76	0xbca3c30c	-0.019990467
77	0x3d13cd4e	0.036084466
78	0x3beb3804	0.0071783084
79	0xbd2e10da	-0.04249654
80	0x3d47cdf7	0.048780408
81	0xbd5a3bcb	-0.05327968
82	0x39aa113b	0.00032437764
83	0x3c5a4841	0.013322891
84	0x3cdd3b7a	0.0270059
85	0xbccb9d22	-0.0248552
86	0x3d04ac3b	0.032390814
87	0xbd285471	-0.041096155
88	0xbc9eab33	-0.019368744
89	0xbd17494a	-0.03693513
90	0xbd0db175	-0.034593064
91	0xbcd6f8da	-0.026241709
92	0x3d4db7e6	0.050224207
93	0xbd635ac0	-0.055506468
94	0x3c237254	0.009975988
95	0xbd81db24	-0.06340626
96	0xbc0a1002	-0.008426668
97	0xbb6165e0	-0.0034392998
98	0x3d56ddf3	0.05245776
99	0x3c6de04e	0.01451881
100	0xbce683d7	-0.028139038
101	0x3ceeb375	0.029138306
102	0xbd3dc3b2	-0.046329208
103	0x3c0b2121	0.008491785
104	0xbac6392c	-0.001512324
105	0xbd1e6480	-0.038670063
106	0xbd3d9263	-0.046282183
107	0xbc7ee4d6	-0.015557488
108	0xbd54b9cc	-0.051935002
109	0xbce0467d	-0.027377361
110	0x3d6ead31	0.058270637
111	0x3cd30aa7	0.025761915
112	0x3c8df286	0.017327558
113	0x3d16e37b	0.036838036
114	0xbd01fef3	-0.03173728
115	0x3d0e3a48	0.03472355
116	0xbcf266cd	-0.029590035
117	0x3ceeffcb	0.029174706
118	0xbaa3801f	-0.0012474096
119	0xbcd212ef	-0.025643794
120	0x3d37d313	0.04487903
121	0xbc81bc3c	-0.015836827
122	0x3d557bb4	0.052119926
123	0xbd1f6f2f	-0.038924392
124	0xbc5c33c9	-0.013440081
125	0x3c01d801	0.0079250345
126	0xbd616383	-0.055026542
127	0x3cd5e601	0.026110651
128	0x3cd8435b	0.026399305
129	0x3d32956e	0.04359954
130	0xbc88ba39	-0.01669036
131	0xbc15def5	-0.009147395
132	0xbd4ea795	-0.050452787
133	0xbcb43dd1	-0.022002133
134	0x3ae5c959	0.001753132
135	0x3cc50464	0.024049945
136	0x3d58c937	0.05292627
137	0x3ceb7897	0.028744025
138	0xbac71c70	-0.001519097
139	0xbb3a4228	-0.002842078
140	0xbd1e87dd	-0.038703788
141	0xbca92891	-0.020649226
142	0xbd09e040	-0.033661127
143	0xbd575d24	-0.05257906
144	0x3c98e9d4	0.018666185
145	0xbce48508	-0.027895465
146	0xbc354679	-0.011064165
147	0xbc9ca441	-0.019121291
148	0xbd02bac4	-0.031916395
149	0xb9c7f2e1	-0.00038137197
150	0x3d1d4e20	0.038404584
151	0x3cf75d47	0.030195845
152	0xbd388423	-0.04504789
153	0x3cf1c7b3	0.02951417
154	0x3c903de3	0.017607635
155	0x3c95330c	0.018212818
156	0x3b2a5452	0.00259902
157	0x3d53da9f	0.051722165
158	0xbbb23acd	-0.0054391385
159	0xbc934d2d	-0.017981136
160	0xbcd87da8	-0.026427105
161	0xbd171d27	-0.036893036
162	0x3bc834f5	0.0061098286
163	0x3d4e8805	0.050422687
164	0x3ce8d2a5	0.028420756
165	0x3c9ec611	0.019381555
166	0xbd3d80c7	-0.04626539
167	0x3d25f1d7	0.04051384
168	0x3d301c5d	0.0429958
169	0xbd0b9ca0	-0.034084916
170	0x3c1e5289	0.009663233
171	0x3d5a7579	0.053334687
172	0x3d27b9dc	0.040948734
173	0x3cf1bccb	0.029508969
174	0x3c7a7055	0.015285571
175	0xbcb7f193	-0.022454059
176	0xbcde19fe	-0.027112003
177	0xbd5cef2b	-0.053939026
178	0xbb3ed092	-0.0029116017
179	0x3cd83fc2	0.02639759
180	0xbd632620	-0.05545628
181	0x3d23a84d	0.039955426
182	0xbcd7c54e	-0.0263392
183	0xbbdf4cb6	-0.0068145646
184	0xbc21cd67	-0.009875632
185	0xbc61fa02	-0.013792517
186	0xbc7bd38d	-0.015370262
187	0xbd448035	-0.04797383
188	0xbd0e5a0d	-0.034753848
189	0xbd21afca	-0.039474286
190	0xbca3dfc3	-0.020004159
191	0x3c89c30a	0.016816635
192	0xbbd4d391	-0.0064949472
193	0x3ce8ea5a	0.02843206
194	0xbcd78d61	-0.026312532
195	0x3d259c5c	0.04043232
196	0x3c0a01b6	0.0084232595
197	0xbd1b50fd	-0.037919033
198	0x3be1bfa9	0.0068893027
199	0x3cb84cd5	0.022497574
200	0x3d36bfad	0.04461639
201	0xbd582402	-0.052768715
202	0xbd0407aa	-0.03223387
203	0xbd2d635c	-0.042331085
204	0x3c9d2b5c	0.019185714
205	0x3d240000	0.040039062
206	0x3bd90aa1	0.0066235815
207	0x3c36f32f	0.011166378
208	0x3cb8e998	0.022572324
209	0xbcde475e	-0.02713364
210	0x3b9b3f8e	0.004737801
211	0x3d3a0536	0.045415126
212	0xbc982f3f	-0.018577216
213	0xbd39c56b	-0.045354288
214	0xbc84e4a2	-0.016222302
215	0x3ca733ba	0.020410407
216	0xbd5d845c	-0.054081306
217	0xbcc7d9b6	-0.024395805
218	0xbc28c57c	-0.01030099
219	0x3ce50f3a	0.027961362
220	0x3cc7ab7e	0.024373766
221	0xbd0d3c59	-0.03448138
222	0x3d55b09d	0.052170385
223	0xbc8721ea	-0.016495664
224	0x3c5e13df	0.013554542
225	0xbc0e01b7	-0.008667401
226	0xbc5578bb	-0.013029273
227	0x3d0180a2	0.031616814
228	0x3c3b15c3	0.011418763
229	0x3cc1db9a	0.023664284
230	0x3cee8fd6	0.02912132
231	0x3d0c418b	0.034242194
232	0xbd06be59	-0.032896373
233	0x3d36c674	0.044622853
234	0xbb98609e	-0.0046501895
235	0x3d60b761	0.054862384
236	0x3cddcf4a	0.027076382
237	0xbb843cd6	-0.0040355725
238	0xbd50173a	-0.0508034
239	0xbcc36115	-0.023850003
240	0xbd42796f	-0.04747909
241	0x3d41e5be	0.04733824
242	0x3d23d610	0.039999068
243	0x3c983821	0.018581452
244	0x3d0118a0	0.031517625
245	0xbc9e78c6	-0.019344699
246	0x3c0fcda1	0.008777053
247	0x3d3caed4	0.046065167
248	0x3d4b3f9b	0.049621206
249	0x3d4bbe3c	0.04974197
250	0xbcb2668e	-0.021777418
251	0xbd63a5dc	-0.055578098
252	0xbca0f761	-0.01964921
253	0xbd4a7f1e	-0.049437635
254	0x3d34c74f	0.044135388
255	0xbc4b8111	-0.012420909

net.3.weight f4 [128, 256]
0	0xbcc60bbe	-0.024175521
1	0xbd274bdc	-0.04084383
2	0xbd32c920	-0.04364884
3	0xbcd276c5	-0.0256914
4	0x3c8431e8	0.016137078
5	0xbd58e056	-0.05294832
6	0xbbf678ee	-0.00752174
7	0xbd4f2eea	-0.05058185
8	0xbc77cde0	-0.015124768
9	0x3bafa8f2	0.005360716
10	0xbd22fb81	-0.039790634
11	0x3cb9f540	0.022699952
12	0xbcb48050	-0.02203384
13	0xbd7de26b	-0.061983507
14	0x3c5b2129	0.013374605
15	0xbcc7da5d	-0.024396116
16	0x3d479941	0.04873014
17	0xb91c6438	-0.00014914654
18	0x3ca6b1cc	0.020348452
19	0xbd528cbc	-0.051403746
20	0xbd0cb2ec	-0.03435032
21	0x3c1ea5f5	0.009683122
22	0x3d4ff24b	0.050768178
23	0xbc65c600	-0.014024258
24	0x3c75d5b9	0.015004569
25	0xbb01df4d	-0.0019816936
26	0x3d2f7a5c	0.0428413
27	0x3d3e0ba2	0.046397813
28	0x3d80bf67	0.06286507
29	0x3b6d7875	0.0036235128
30	0xbcb7bca7	-0.022428824
31	0x3c71c761	0.014757008
32	0xbca00b58	-0.01953666
33	0x3ccc97b1	0.024974676
34	0xbcf89701	-0.030345442
35	0x3d8b4dae	0.068019256
36	0x3bbbfc70	0.00573688
37	0x3dc84435	0.097786345
38	0xbc99ed76	-0.018789988
39	0x3a8f71b4	0.001094392
40	0x3cf24182	0.029572252
41	0xbd658921	-0.05603898
42	0x3be9a027	0.0071296874
43	0xbd607aae	-0.054804496
44	0xbd596042	-0.053070314
45	0x3d0edba0	0.03487742
46	0x3cbb1161	0.022835435
47	0xbd34f429	-0.04417816
48	0x3d2f650d	0.04282098
49	0xbcc4ccf4	-0.02402351
50	0x3d28c9f6	0.04120823
51	0xbd1dd201	-0.038530353
52	0xbc645111	-0.013935343
53	0x3d4fead8	0.050761074
54	0xbcb75704	-0.02238036
55	0x3c286cbd	0.0102798315
56	0xbb95e114	-0.0045739505
57	0x3c8bd7ee	0.017070737
58	0xbb684dd2	-0.0035446775
59	0x3c85bd08	0.016325489
60	0x3d88b35c	0.06674835
61	0xbc81583c	-0.015789144
62	0xbd0677aa	-0.032828964
63	0xbd497665	-0.049185175
64	0xbd17076d	-0.036872316
65	0xbd4dfc22	-0.05028928
66	0xbc7f51dd	-0.015583483
67	0xbccb476c	-0.02481433
68	0xbc891f79	-0.01673864
69	0xbc0dd1ef	-0.008656009
70	0xbd0b4011	-0.033996645
71	0xbd6e6573	-0.05820222
72	0xbd6f802f	-0.058471855
73	0xbbd34d5a	-0.00644843
74	0x3d3efb0f	0.046626147
75	0x3cc0863c	0.023501508
76	0x3bbf6810	0.0058412626
77	0x3cf15e57	0.02946393
78	0xbd1a9ec0	-0.037749052
79	0x3befc498	0.007317137
80	0xbd2125cd	-0.03934269
81	0x3d5aa906	0.05338385
82	0x3cd78686	0.026309263
83	0x3d0c196e	0.03420394
84	0xbc7e95bb	-0.015538628
85	0xbd45491a	-0.04816542
86	0x3cfb8004	0.030700691
87	0xbcfd25ac	-0.030901752
88	0x3c5e8b27	0.013582981
89	0x3ca09884	0.019603975
90	0x3cfb29f2	0.03065965
91	0xbcf89943	-0.030346518
92	0x3c22bafa	0.009932274
93	0xbd65d8db	-0.056115013
94	0x3d1753a6	0.036945008
95	0xbb9ffa75	-0.0048821517
96	0xbd03449a	-0.032047845
97	0x3d3ea297	0.046541777
98	0xbccce97a	-0.025013674
99	0x3d44319f	0.047898885
100	0xbc9a8862	-0.01886386
101	0x3b396ef8	0.0028294902
102	0xbd16106a	-0.036636747
103	0x3a9dc1a0	0.0012035854
104	0x3cda21a5	0.026627371
105	0x3d5f1ae3	0.054469
106	0x3c83809e	0.01605254
107	0xbd049456	-0.032368027
108	0x3d270fcd	0.040786553
109	0xbcee018e	-0.029053476
110	0x3d32a6d8	0.043616146
111	0x3c4eee46	0.012630051
112	0x3cbad15e	0.022804912
113	0xbd17154a	-0.036885537
114	0x3cf7e0a3	0.030258482
115	0xbd84d06d	-0.064850666
116	0x3c0d9404	0.008641247
117	0x3baeaa5f	0.0053303684
118	0xbd45ce78	-0.048292607
119	0x3caeebe8	0.021352723
120	0xbd90126c	-0.07034764
121	0xbc5542b6	-0.013016393
122	0xbc20d13b	-0.009815509
123	0xbc63bb2c	-0.013899606
124	0x3d3172d6	0.043322407
125	0xbd3eaf4a	-0.046553887
126	0x3d1cb53b	0.038258772
127	0xbd50d572	-0.050984807
128	0xbb8e95b9	-0.0043513444
129	0x3d1081bb	0.03527997
130	0xbd8a87ad	-0.06764159
131	0xbd1f243a	-0.038852908
132	0xbcf765ac	-0.030199848
133	0xbd25e90f	-0.040505465
134	0x3c7ff2cc	0.015621852
135	0xbd1d9848	-0.038475305
136	0xbcc418b2	-0.023937557
137	0x3ca089fa	0.019597042
138	0x3d31f9d5	0.04345115
139	0x3cc05c9e	0.023481663
140	0x3d5566b8	0.052099913
141	0xbd4c32d6	-0.04985317
142	0x3c52d05b	0.012867059
143	0x3d1e2ad4	0.038615063
144	0xbbaee838	-0.005337741
145	0xbbd68828	-0.006546993
146	0xbcca994e	-0.024731304
147	0xbcfadf97	-0.030624194
148	0xbd32b501	-0.04362965
149	0xbc9a8a21	-0.018864693
150	0x3d2cc898	0.04218349
151	0xbd761293	-0.060076308
152	0xbd3fb650	-0.046804726
153	0xbd3f68d3	-0.046730828
154	0xbc40b856	-0.011762699
155	0x3cb5a0ac	0.02217134
156	0x3c743897	0.01490607
157	0x3c67020e	0.014099611
158	0x3c349886	0.011022693
159	0x3d1cb7cb	0.038261216
160	0xbd285ce7	-0.041104224
161	0xbd497b85	-0.049190063
162	0x3c848f48	0.016181603
163	0x3bb95955	0.005656401
164	0xbbf311cc	-0.007417893
165	0x3ce46b6e	0.027883258
166	0x3d57917f	0.05262899
167	0xbc2b294c	-0.010446858
168	0xbc796e95	-0.015224119
169	0xbca6cde1	-0.020361843
170	0x3c82c23c	0.015961759
171	0x3d376d80	0.04478216
172	0x3d448c4d	0.047985364
173	0x3b17966e	0.0023130435
174	0x3c4c765f	0.012479394
175	0x3dbd5095	0.092438854
176	0xbbbd3c0f	-0.005774982
177	0xbbc90841	-0.006135017
178	0xbb71aedc	-0.0036877906
179	0x3c7d364d	0.015454841
180	0x3d18c181	0.037293915
181	0xbc1b456b	-0.009477
182	0xbd2814d8	-0.041035503
183	0xbd0f80db	-0.035034996
184	0xbc8e1200	-0.017342567
185	0xbb3bcddd	-0.002865664
186	0x3d2286d5	0.039679367
187	0xbb8869c0	-0.004162997
188	0x3d5a33df	0.053272124
189	0x3d5cf3f3	0.053943586
190	0xbc28ee8f	-0.010310783
191	0x3c58b9be	0.013227878
192	0x3cd016ff	0.02540159
193	0xbc501c57	-0.012702069
194	0xbd708056	-0.05871614
195	0xbd8e52c4	-0.0694938
196	0x3bddfbc3	0.006774397
197	0xbc956035	-0.018234352
198	0xbd0a5515	-0.033772547
199	0xbd3d66ad	-0.046240497
200	0x3d3ec18c	0.0465713
201	0xbd75a392	-0.059970446
202	0xbd7a1396	-0.061053835
203	0xbd392008	-0.045196563
204	0x3d3f9aba	0.046778418
205	0xbd2bea92	-0.04197175
206	0xbc86fcda	-0.01647799
207	0xbcd17975	-0.02557061
208	0x3ce5f4bc	0.0280708
209	0xbcd8763b	-0.026423564
210	0xbd528afd	-0.05140208
211	0xbd056ac9	-0.03257254
212	0x3bfa94cb	0.007647132
213	0x3d976213	0.07391753
214	0xbd46e3b0	-0.048556983
215	0x3c5840c5	0.013199036
216	0x3a54a7f1	0.00081121834
217	0xbcb9e468	-0.02269192
218	0x3cf50d42	0.029913548
219	0xbd44bc2b	-0.048031013
220	0x3d358f48	0.044326097
221	0x3d518353	0.05115063
222	0xbb4696a0	-0.0030302182
223	0xbd0c4a76	-0.0342507
224	0x3d59341b	0.053028207
225	0x3bd60b5b	0.0065321154
226	0xbd55a46f	-0.05215877
227	0x3c44cd03	0.012011769
228	0xbd222f9c	-0.039596185
229	0x3c93c756	0.018039387
230	0xbd06e3f8	-0.03293225
231	0x3cc08e79	0.023505436
232	0x3d00cd6a	0.031445898
233	0x3ba3a0ae	0.0049935197
234	0x3b3aef3a	0.0028523938
235	0xbd912e41	-0.070889
236	0xbcb306ef	-0.021853892
237	0xbd362027	-0.044464257
238	0xbd68326c	-0.05668871
239	0xbd22de9e	-0.039763086
240	0x3d7190d7	0.05897602
241	0x3b88c28e	0.0041735834
242	0x3cf0aa53	0.029378092
243	0x3c22b727	0.009931362
244	0x3d496a15	0.049173433
245	0xbcf8c389	-0.030366676
246	0x3d053258	0.032518715
247	0xbca2d037	-0.019874675
248	0xbd9535d2	-0.07285656
249	0x3bd7ecba	0.0065894993
250	0xbbb06381	-0.0053829555
251	0xbce92e2f	-0.028464405
252	0xbd8e265c	-0.0694091
253	0xbd76ab56	-0.060221992
254	0x3d0c2730	0.03421706
255	0xbcaea906	-0.021320831

net.3.bias f4 [128]
0	0xbd4b9562	-0.04970301
1	0xbaae6612	-0.0013305566
2	0x3dacc238	0.08435482
3	0x3d801979	0.062548585
4	0x3d462502	0.048375137
5	0x3d410f93	0.047133993
6	0x3d907b17	0.070547275
7	0x3d39851b	0.045292955
8	0x3d29122f	0.041277107
9	0x3d66f74b	0.05638818
10	0x3aa5b875	0.0012643473
11	0x3a844978	0.0010092696
12	0x3da8b8c9	0.0823837
13	0x3d4eb1c3	0.050462496
14	0x3c451f18	0.012031339
15	0x3d88aab9	0.06673188
16	0x3d8df9a2	0.06932379
17	0x3d90039f	0.07031941
18	0xbd54ab50	-0.05192119
19	0x3db76cf2	0.089563265
20	0x3d0bd992	0.034143038
21	0x3a174298	0.0005770116
22	0x3be7725e	0.007063194
23	0x3d31d61c	0.04341708
24	0x3d923387	0.07138734
25	0xbd7d9a04	-0.06191446
26	0x3d9217a3	0.071334146
27	0x3d6ce57d	0.057836045
28	0x3c86d8e6	0.016460847
29	0x3d1dbf11	0.038512293
30	0xbd7357ed	-0.059410024
31	0x3d00af0a	0.03141693
32	0x3d3da089	0.046295676
33	0x3d9d6bde	0.0768659
34	0x3d8faa19	0.070148654
35	0x3db95912	0.09050192
36	0x3d8c6e8f	0.06857025
37	0x3ca72d72	0.020407412
38	0x3d846879	0.06465239
39	0xbd3ce74e	-0.046119027
40	0xbd8e34d3	-0.06943669
41	0x3cb69814	0.022289313
42	0x3d8dbf6a	0.06921275
43	0x3d974d07	0.07387739
44	0x3d84bb6b	0.0648106
45	0x3d27b3f1	0.04094309
46	0x3dbdd40d	0.09268961
47	0xbcf15a9b	-0.02946215
48	0x3d46f205	0.04857065
49	0x3d053200	0.032518387
50	0xbbd944ba	-0.0066305073
51	0x3d89d78f	0.06730568
52	0xba804aec	-0.0009787953
53	0x3d65be89	0.05608991
54	0xbc2ac3e3	-0.01042268
55	0x3d208180	0.039186
56	0xbc937154	-0.017998375
57	0xbd94eb57	-0.0727145
58	0xbd2683f9	-0.040653203
59	0xbd14f502	-0.03636647
60	0xbd6973fe	-0.056995384
61	0xbd2ad9d9	-0.041711662
62	0x3d414e47	0.04719379
63	0xbd2b4798	-0.041816324
64	0x3dbdd97d	0.09269998
65	0xbd65d431	-0.056110565
66	0x3ca2b905	0.019863615
67	0x3a544fa9	0.00080990285
68	0xbcd1e02e	-0.025619593
69	0x3d4c7c83	0.04992343
70	0xbd8a22e3	-0.06744935
71	0x3d866830	0.06562841
72	0xbcbe167d	-0.023204083
73	0x3be70210	0.0070498064
74	0x3d3b6d45	0.045758504
75	0x3d4760ce	0.048676305
76	0xbd65f611	-0.05614287
77	0x3d6f42bc	0.058413252
78	0x3d0cc3b9	0.034366343
79	0x3d0c8b14	0.034312323
80	0xbc009a67	-0.007849312
81	0x3d393d3d	0.045224417
82	0xbc2297c6	-0.009923881
83	0xbcfbfea9	-0.03076108
84	0x3d14fc4f	0.036373433
85	0xbbbbe154	-0.0057336483
86	0x3d265775	0.04061075
87	0x3db5a07e	0.08868502
88	0xbcc4f6ae	-0.024043407
89	0xbd23260c	-0.039831206
90	0x3cc43b13	0.02395395
91	0xbc0e06b3	-0.008668589
92	0x3da39c10	0.07988751
93	0x3c84eb67	0.01622553
94	0x3cc600b5	0.024170259
95	0x3c9c8616	0.019106906
96	0x3d2ebb6a	0.0426592
97	0x3d543f8a	0.051818408
98	0x3d2ac1c1	0.041688684
99	0x3cf3db21	0.029767575
100	0x3d7cd7ea	0.06172935
101	0xbca12cff	-0.019674776
102	0xbd59190d	-0.053002406
103	0x3d6afaa8	0.05736795
104	0x3d000a83	0.031260025
105	0x3db6d9a9	0.08928234
106	0x3d90b6f3	0.07066145
107	0x3ce57b74	0.028012969
108	0x3d42c2b7	0.047548976
109	0x3db3b925	0.08775548
110	0xbce95ec0	-0.028487563
111	0x3cea0059	0.028564619
112	0x3dc5a05e	0.09649728
113	0xbc968437	-0.018373592
114	0xbd59be55	-0.05316003
115	0xba6e7718	-0.0009096726
116	0xbc30cc2c	-0.010790866
117	0x3d821094	0.06350818
118	0xbc0c1ddc	-0.008552041
119	0x3d86061b	0.06544133
120	0x3d8cf197	0.06882017
121	0x3d2a279f	0.041541692
122	0x3d0640dd	0.032776702
123	0x3daa6dd0	0.08321726
124	0xbc9c2a21	-0.019063057
125	0x3d74ae3e	0.059736483
126	0x3d7ff1c1	0.062486414
127	0x3ba810b1	0.005128943

net.6.weight f4 [3, 128]
0	0xbd44988c	-0.047997043
1	0xbe0c6112	-0.13708904
2	0x3df17539	0.117899366
3	0xbe854cc8	-0.26035142
4	0xbe47a553	-0.1949666
5	0x3dda9a13	0.106739186
6	0x3e01e530	0.12685084
7	0xbe2b06d9	-0.16701831
8	0x3e0f154c	0.13972968
9	0x3e038a7b	0.12845795
10	0x3d7ef796	0.062247835
11	0x3cbd31d8	0.023095056
12	0x3d49f7f3	0.04930873
13	0xbea8653e	-0.32889742
14	0xbe4ec072	-0.201906
15	0x3e1c5379	0.15266217
16	0x3c1c2216	0.009529611
17	0xbe100b8d	-0.14066906
18	0xbc3c7e4c	-0.011504721
19	0x3dbfd22a	0.093662575
20	0xbdfd1799	-0.123580165
21	0xbe81ce98	-0.2535293
22	0xbe738714	-0.23781997
23	0x3d80ed92	0.06295313
24	0x3dc2905f	0.09500193
25	0x3d4a2c3d	0.049358595
26	0xbe26bb46	-0.16282377
27	0x3e333648	0.17501175
28	0xbdc2d23c	-0.09512755
29	0x3dcc1031	0.09964026
30	0xbd873e4f	-0.06603681
31	0xbe9baef8	-0.30406928
32	0xbdc888ee	-0.09791742
33	0x3e569207	0.20954143
34	0xbe650a4e	-0.22367212
35	0x3de49068	0.11160356
36	0x3e117377	0.14204203
37	0xbd236e28	-0.039899975
38	0x3e003215	0.12519105
39	0xbcd0d17c	-0.025490515
40	0xbd29878f	-0.041389044
41	0x3e1faec8	0.15594018
42	0x3e0f6e13	0.14006834
43	0x3e5e4075	0.21704276
44	0x3d831ede	0.06402372
45	0xbe37544a	-0.17903247
46	0x3d6ddcf9	0.058072064
47	0x3c9b7fbd	0.018981809
48	0x3dee8e68	0.116482556
49	0x3ae9c3c4	0.0017834832
50	0xbe835966	-0.25654143
51	0xbda9469a	-0.08265419
52	0xbd96d6d0	-0.07365191
53	0x3e22ce0e	0.15898916
54	0xbc9000e7	-0.017578555
55	0x3ce816b5	0.02833114
56	0xbea07a0e	-0.3134312
57	0xbc342987	-0.010996229
58	0x3d36803d	0.04455589
59	0x3d13f129	0.03611866
60	0x3d3f2a44	0.046671167
61	0xbd40db3b	-0.047084074
62	0x3e258635	0.16164477
63	0xbcc34557	-0.023836775
64	0x3e57f4fb	0.21089546
65	0x3d486fed	0.048934866
66	0xbea0ac46	-0.31381434
67	0xbcb11c7f	-0.021620033
68	0xbeba9eae	-0.36449188
69	0x3df6b113	0.12045493
70	0x3caa5be6	0.020795774
71	0x3e3adbe8	0.1824795
72	0xbe795507	-0.24348842
73	0xbe69e9bd	-0.2284307
74	0x3cd0e8e8	0.025501683
75	0xbe732857	-0.23745857
76	0xbcc16ba5	-0.0236109
77	0x3de0b8e4	0.10972765
78	0x3e5ee90e	0.21768591
79	0x3d33716f	0.04380935
80	0xbe2443ef	-0.1604154
81	0xbe7f5498	-0.24934614
82	0xbe68ef51	-0.22747542
83	0xbe005ef5	-0.12536223
84	0xbe4e2636	-0.20131764
85	0x3d7b3e12	0.06133849
86	0x3d7d8168	0.06189099
87	0x3d89bc60	0.06725383
88	0x3cf6a995	0.03011016
89	0xbb3c7df9	-0.002876161
90	0xbe690ee4	-0.22759587
91	0xbe543604	-0.2072373
92	0x3e460860	0.19339132
93	0xbe359225	-0.17731531
94	0xbe1fffa3	-0.15624861
95	0xbe90c4b8	-0.28275084
96	0xbe727fdf	-0.23681591
97	0x3e291ac6	0.1651412
98	0xbe62960c	-0.22127551
99	0xbe79d66c	-0.24398202
100	0x3df05442	0.11734821
101	0x3b362460	0.0027792677
102	0x3bacf8e6	0.0052786944
103	0xbce455fc	-0.027873032
104	0xbe4decb3	-0.20109825
105	0x3e3ac6b0	0.18239856
106	0xbde59f0a	-0.11211975
107	0xbe05bb3f	-0.1305971
108	0xbe7ed62c	-0.24886388
109	0x3e031ebc	0.12804693
110	0xbe915df3	-0.2839199
111	0x3d964ec4	0.07339242
112	0x3e452c26	0.19255123
113	0xbc9bb7ee	-0.019008603
114	0x3d971d55	0.073786415
115	0xbdf16f93	-0.11788859
116	0xbd213710	-0.039359152
117	0xbe28e954	-0.16495258
118	0xbd12b5ea	-0.035818018
119	0x3e230d80	0.15923119
120	0x3e12e199	0.14343871
121	0x3df13f49	0.11779649
122	0xbe056489	-0.13026632
123	0x3dfb657d	0.12275217
124	0xbcee20c3	-0.029068356
125	0xbd3b9cb6	-0.045803748
126	0xbe42afda	-0.19012395
127	0xbe45f51d	-0.19331785
128	0x3bd92923	0.0066272183
129	0x3e1ba43c	0.15199369
130	0xbe70a44d	-0.23500176
131	0x3e1fdce0	0.15611601
132	0x3e2afe2f	0.16698526
133	0xbe36f5da	-0.17867222
134	0xbe70aef7	-0.23504244
135	0x3e3d2f8d	0.1847517
136	0xbe58983f	-0.21151827
137	0x3e437f23	0.19091468
138	0x3e31e105	0.17370994
139	0x3d49a665	0.04923095
140	0xbe3fea4d	-0.18741722
141	0xbd211f6d	-0.03933661
142	0x3e559a9b	0.20859759
143	0xbdfc403d	-0.1231694
144	0xbe4d9648	-0.20076859
145	0x3e4fc38e	0.20289442
146	0x3d9001dd	0.070316054
147	0xbe138a41	-0.14408208
148	0xbe587916	-0.2113994
149	0x3dcbe088	0.09954935
150	0x3d7db333	0.061938476
151	0x3e500f67	0.20318376
152	0xbe62fbe7	-0.22166406
153	0x3ce98e7d	0.028510327
154	0x3e3bfdb5	0.183585
155	0xbe0b9079	-0.1362933
156	0x3e4fe4c0	0.20302105
157	0x3e074af2	0.13212183
158	0xbc03e92b	-0.008051197
159	0x3e025e22	0.12731221
160	0xbe328881	-0.17434885
161	0xbd9dc032	-0.07702674
162	0x3e0452bb	0.12922184
163	0xbe5cda70	-0.21567702
164	0xbdfe4065	-0.12414626
165	0xbd7a266c	-0.0610718
166	0xbe6348d3	-0.22195749
167	0x3c6b0626	0.014344728
168	0xbd62c4a7	-0.055363324
169	0xbe1a2c76	-0.15056023
170	0xbe26c76f	-0.16287015
171	0xbdc95d85	-0.098322906
172	0xbe6c42f8	-0.23072422
173	0x3e355e6c	0.177118
174	0xbe4164e6	-0.18886146
175	0x3c48c6d5	0.0122544365
176	0xbe3a9fe3	-0.18225054
177	0xbe902fb2	-0.2816139
178	0x3df2adcf	0.118495576
179	0x3e581216	0.21100649
180	0xbd86e315	-0.06586281
181	0xbe5597b5	-0.20858653
182	0x3e717e76	0.23583397
183	0x3e589adf	0.21152829
184	0x3db83c16	0.089958355
185	0xbb222502	-0.0024741297
186	0x3bc30f7a	0.0059527727
187	0xbd4993e0	-0.04921329
188	0xbd3641d0	-0.044496357
189	0xbc534f1c	-0.012897279
190	0xbe012fac	-0.12615842
191	0x3e3f8b26	0.18705425
192	0xbcc4636f	-0.023973195
193	0xbd5bad23	-0.053631913
194	0xbc0ec480	-0.008713841
195	0x3e4c74fb	0.199665
196	0x3e124e5b	0.14287703
197	0xbe76fe1c	-0.24120373
198	0xbd140401	-0.03613663
199	0xbe33d6b1	-0.17562367
200	0x3e33de18	0.17565191
201	0x3d82a65d	0.063793875
202	0xbe5e9f1d	-0.21740384
203	0xbd0bcd72	-0.034131475
204	0x3bafd360	0.005365774
205	0xbe5be82d	-0.21475287
206	0xbcaecedd	-0.021338874
207	0xbe851b8c	-0.2599758
208	0xbe24b105	-0.16083153
209	0x3e4403bb	0.19142048
210	0x3e4756d0	0.1946671
211	0xbe368a13	-0.17826109
212	0x3e113eeb	0.14184158
213	0x3dbfcb95	0.09365002
214	0xbe517062	-0.20453027
215	0xbe57d14c	-0.21075934
216	0x3d14abfd	0.036296833
217	0x3c02c45f	0.007981389
218	0x3def71c7	0.11691623
219	0x3d89e36d	0.06732831
220	0xbe2ea1e7	-0.17053948
221	0x3e257726	0.16158733
222	0xbe0d8b6e	-0.1382272
223	0x3dc3e278	0.0956468
224	0x3e242202	0.16028598
225	0xbe28f86b	-0.16501014
226	0x3e0ef64f	0.13961147
227	0x3de4b4cd	0.111672975
228	0xbe4ab721	-0.1979642
229	0xbd4a49aa	-0.049386658
230	0x3c277a98	0.0102221
231	0xbe3a7059	-0.1820692
232	0xbde05677	-0.10953992
233	0xbe3e9f30	-0.18615413
234	0x3e304d53	0.17216997
235	0x3e5edd0f	0.21764015
236	0xbd844f9a	-0.06460495
237	0xbc937588	-0.01800038
238	0x3d9eca05	0.07753376
239	0x3e600c36	0.21879658
240	0x3df514ef	0.119668834
241	0x3e983b12	0.29732567
242	0x3c0c4552	0.008561449
243	0x3e8acd17	0.27109596
244	0xbd744d73	-0.059644174
245	0xbdc674bc	-0.09690234
246	0xbe13bfee	-0.14428684
247	0xbdbd02ab	-0.092290245
248	0x3e6f43e3	0.2336574
249	0xbe43e1e2	-0.19129136
250	0x3e566f01	0.20940782
251	0x3e0865a3	0.13320021
252	0xbd59e6e3	-0.053198706
253	0x3dc77046	0.09738211
254	0x3ddca84d	0.10774288
255	0x3d5ea512	0.054356642

net.6.bias f4 [3]
0	0xbcd2aed7	-0.025718136
1	0x3d03ad1e	0.03214752
2	0xbdc4cbe7	-0.09609204
